my_mnist_model_ep15.pt (torch_old, 447184 bytes, 6 tensors)

weight f4 [128, 784]
-0.018017361 0.017654307 -0.014954407 0.0056883744 0.028830837 0.0071955374 -0.027969966 0.016687538
0.03493473 0.028810892 -0.01849378 0.024880502 0.033511855 -0.008106028 0.015126624 -0.0077086966
0.00029301507 0.035740174 0.024385225 0.03005645 0.02774017 -0.03434304 0.00937114 -0.016594376
0.019504808 0.028824959 -0.020788377 -0.027059078 -0.023530003 0.0054734885 -0.018676026 -0.013900514
-0.0015262543 -0.010805679 0.028478224 -0.024790118 0.019572476 -0.028466914 0.008380464 0.023427514
0.02392192 -0.03168446 0.006127163 0.01987338 0.017829593 0.0098244455 0.014899841 0.0225328
0.03234063 -0.019650713 -0.004210426 -0.028490553 0.031957343 0.017034221 -0.03278225 -0.0055450895
-0.021900276 0.009078176 -0.007732756 0.0048361085 0.032896202 -0.027997883 -0.029683761 -0.024234766
0.0107694855 0.025009759 0.023875203 -0.033161886 0.031082064 0.027307691 0.02160286 -0.017095828
0.010873297 -0.029596578 -0.019545373 -0.011814185 0.023504332 0.02282055 0.027053995 0.027851103
-0.0020698712 0.007970776 -0.011491486 0.03263378 0.034645766 -0.011498787 0.0056942045 0.027316485
-0.017263835 -0.00097480044 -0.021907676 -0.032270797 -0.0024277277 -0.0192244 -0.0058406824 -0.0146691445
0.009875341 0.02955985 -0.009587657 -0.019831166 0.014622566 -0.016965507 0.018205803 0.033351626
-0.0064678816 0.010645728 0.02670401 0.0154837975 -0.0008486611 0.012283412 0.029356513 -0.0056718723
-0.020508315 0.03191907 0.016005147 0.0192561 0.027995743 -0.03361938 -0.023722496 -0.022832287
0.0005459734 -0.018127508 0.027584914 0.008485364 0.015269145 0.025834296 0.029811824 -0.03073174
0.016185908 0.022487959 0.027502812 -0.008792056 -0.0106013315 -0.0328517 -0.029415995 -0.023275781
-0.005169933 0.028138386 0.02058674 -0.03229322 -0.01919156 0.008020839 0.0003254783 -0.025431793
0.004922117 -0.007879214 0.024266535 0.018329855 -0.022744019 -0.017607434 0.0189545 -0.0024512147
-0.032431107 0.016250268 -0.009889503 -0.011377048 0.0038382097 -0.00030103873 -0.01291682 0.030963883
0.02238634 -0.007180842 0.015821433 -0.0179184 0.023732703 -0.024364486 -0.017346544 -0.011184842
-0.013241214 0.010005769 -0.0094942795 0.0067336825 0.032161396 -0.014299957 -0.031380974 -0.02368213
-0.00684597 -0.009403354 -0.0037987083 -0.033895213 0.014084153 -0.020761918 -0.018052114 -0.007934879
0.030554283 -0.0010602721 -0.018923175 -0.010452663 -0.0050908183 -0.03299165 0.018768627 0.024849512
0.028629526 0.013939041 -0.012746427 0.025713447 -0.0011211284 0.022060646 0.009352637 0.0013736965
-0.002415526 0.0109613035 0.015474652 0.012848071 -0.016613731 -0.011041508 0.020242061 -0.026776547
0.013451534 -0.019925304 -0.011788871 0.012969989 -0.031099107 -0.009762201 -0.01578164 0.023590533
0.0053378837 0.0011100501 0.025302013 -0.020441951 0.03193332 0.02007833 -0.030017292 -0.003581052
-0.019679151 -0.0060364315 0.0118147405 -0.004528727 0.02167161 -0.0036657904 0.008630226 -0.03273564
0.006464313 -0.022902723 -0.0019807655 -0.011290703 -0.032189626 0.032364503 -0.0346015 -0.02558346
-0.03389657 0.008958208 0.024331838 -0.006326488 0.022277156 0.012459902 -0.032848436 -0.02918408
-0.03134048 0.008610492 -0.0037219524 0.031581108 -0.020669734 -0.0072039287 -0.027455717 0.023606772
00000000: 2599 93bc c49f 903c 5403 75bc 8b65 ba3b
00000010: a62e ec3c 8bc8 eb3b 4521 e5bc 4eb4 883c
00000020: b817 0f3d d204 ec3c 4580 97bc 32d2 cb3c
00000030: ba43 093d 25cf 04bc a9d5 773c 3c99 fcbb
00000040: d19f 9939 4a64 123d 86c3 c73c f238 f63c
00000050: 5a3f e33c 4aab 0cbd 6989 193c eef0 87bc
00000060: 8cc8 9f3c 5222 ec3c 634c aabc 00ab ddbc
00000070: fec1 c0bc f35a b33b 77fe 98bc fbbe 63bc
00000080: 990c c8ba 4d0a 31bc 2a4b e93c a514 cbbc
00000090: 7556 a03c 7233 e9bc 374e 093c 0feb bf3c
000000a0: e7f7 c33c 90c7 01bd 5ec6 c83b 80cd a23c
000000b0: 5e0f 923c b6f6 203c 761e 743c b596 b83c
000000c0: 9c77 043d 88fa a0bc 9df7 89bb 0565 e9bc
000000d0: b4e5 023d 5a8b 8b3c ae46 06bd 95b3 b5bb
000000e0: 3568 b3bc a1bc 143c 0f63 fdbb 3878 9e3b
000000f0: 2bbe 063d d15b e5bc 5c2b f3bc fd87 c6bc
00000100: 7f72 303c 44e1 cc3c ee95 c33c c2d4 07bd
00000110: d09f fe3c 61b4 df3c 7bf8 b03c 8d0c 8cbc
00000120: ea25 323c 8674 f2bc 9e1d a0bc 4990 41bc
00000130: 288c c03c 29f2 ba3c 57a0 dd3c ff27 e43c
00000140: ada6 07bb dc97 023c c946 3cbc 00ab 053d
00000150: b8e8 0d3d 6965 3cbc 7396 ba3b d2c6 df3c
00000160: e36c 8dbc c089 7fba ba77 b3bc 622e 04bd
00000170: 831a 1fbb 7d7c 9dbc 3263 bfbb da56 70bc
00000180: 2fcc 213c 8027 f23c 8c15 1dbc f874 a2bc
00000190: 7d93 6f3c 3ffb 8abc 5624 953c b79b 083d
000001a0: 86f0 d3bb 6b6b 2e3c 5ec2 da3c c1af 7d3c
000001b0: af78 5eba 5d40 493c 127d f03c 1ddb b9bb
000001c0: 0e01 a8bc 92bd 023d 3a1d 833c f8be 9d3c
000001d0: 5457 e53c 7ab4 09bd ae55 c2bc c70a bbbc
000001e0: a81f 0f3a 2480 94bc c2f9 e13c 3206 0b3c
000001f0: 702b 7a3c 72a2 d33c ed37 f43c 21c1 fbbc
00000200: 4f98 843c ab38 b83c 944d e13c 8e0c 10bc
00000210: 35b1 2dbc 818f 06bd d0f9 f0bc daac bebc
00000220: 8b68 a9bb 7982 e63c 86a5 a83c e545 04bd
00000230: 9e37 9dbc d669 033c f5a4 aa39 5656 d0bc
00000240: b649 a13b d217 01bc 9dca c63c 7e28 963c
00000250: aa51 babc 773d 90bc 7846 9b3c 8fa4 20bb
00000260: 7bd6 04bd 481f 853c 9507 22bc cc66 3abc
00000270: 798a 7b3b bcd4 9db9 12a1 53bc f8a7 fd3c
00000280: 8f63 b73c 454d ebbb f39b 813c 9cc9 92bc
00000290: 166b c23c 0898 c7bc 571a 8ebc a140 37bc
000002a0: adf1 58bc 3def 233c e58d 1bbc 39a6 dc3b
000002b0: abbb 033d 5e4a 6abc 5689 00bd 0701 c2bc
000002c0: 2954 e0bb 8610 1abc c0f3 78bb b5d5 0abd
000002d0: 38c1 663c e614 aabc 07e2 93bc 4b01 02bc
000002e0: fa4c fa3c d4f8 8aba c604 9bbc a541 2bbc
000002f0: e1d0 a6bb 4122 07bd aac0 993c 3491 cb3c
00000300: 7888 ea3c 9360 643c 64d6 50bc 02a5 d23c
00000310: d4f2 92ba 87b8 b43c ce3b 193c 9b0d b43a
00000320: cd4d 1ebb 0a97 333c 6589 7d3c b780 523c
00000330: 8519 88bc 71e7 34bc aed2 a53c 7d5a dbbc
00000340: d363 5c3c 643a a3bc 1c26 41bc 1480 543c
00000350: 8ec3 febc a4f1 1fbc 7f48 81bc ef40 c13c
00000360: 6ae9 ae3b 1a7f 913a 2b46 cf3c e175 a7bc
00000370: 83cc 023d 4f7b a43c d3e6 f5bc 15b0 6abb
00000380: 2c36 a1bc 42cd c5bb 9d92 413c b765 94bb
00000390: a988 b13c c23d 70bb cb65 0d3c ce15 06bd
000003a0: 96d2 d33b 7e9e bbbc bbcf 01bb a4fc 38bc
000003b0: 45d9 03bd a490 043d 4dba 0dbd 6894 d1bc
000003c0: 21d7 0abd 73c5 123c 9053 c73c 6e4e cfbb
000003d0: 957e b63c 9e24 4c3c 158c 06bd 7413 efbc
000003e0: e05e 00bd 0513 0d3c 00ec 73bb 315b 013d
000003f0: 9353 a9bc ef0e ecbb d0ea e0bc fd62 c13c

bias f4 [128]
0.012170604 -0.018242257 -0.020669274 0.029904278 -0.028624298 -0.029095002 -0.030987786 -0.020088607
0.023414137 0.02702106 -0.032234028 -0.021251965 -0.009477305 -0.036052056 0.019933308 -0.0022195645
-0.026739959 -0.021884218 0.028581178 0.02779656 -0.018613018 0.011959249 0.010389622 -0.02473254
-0.0043051415 -0.026310397 -0.022431014 0.0006298531 0.0070026764 -0.021932295 0.011211378 -0.012203722
-0.01375021 0.009134001 0.03165449 -0.031125061 -0.023872007 0.022966223 0.017292554 0.023586793
0.029205188 0.021985473 0.0021314716 0.017499845 0.013756309 0.009834821 0.012396195 -0.021853454
-0.017903397 0.0109862825 -0.012877631 0.03283591 0.034841534 0.01913394 -0.016874576 -0.015683623
-0.03098153 0.012048623 -0.0036014626 0.011741039 -0.035531234 -0.02054037 -0.00952157 0.022353133
-0.003768694 0.030572869 -0.02623175 0.025058398 -0.0097518405 0.0061187344 -0.021305911 -0.028740278
-0.014307507 -0.028562421 -0.01936335 -0.03059869 0.00689955 -0.014157545 -0.010224618 -0.032753326
0.019183557 -0.035311952 0.0070089856 0.00012827416 -0.017679892 -0.0043061553 0.006265674 0.028462507
-0.030293701 -0.024089007 -0.0050611543 0.02924271 -0.026333394 0.009935504 0.027122341 -0.023123892
-0.034675945 -0.010474183 -0.009988625 -0.023306005 -0.026712704 -0.011372889 -0.026342813 0.019007972
0.03365279 -0.012564552 -0.022863 0.024839984 -0.009380716 -0.041382622 -0.016950188 0.011157229
0.028277274 0.030719513 0.011896271 0.03799893 -0.02858966 -0.008947965 -0.015351057 -0.0001120129
0.031165313 -0.016053408 -0.027841045 -0.010742212 0.018931922 -0.00522245 0.027661389 0.019424994
00000000: 3767 473c c970 95bc 9c52 a9bc d1f9 f43c
00000010: 817d eabc a458 eebc 19da fdbc dd90 a4bc
00000020: 01cf bf3c 455b dd3c d407 04bd 9a18 aebc
00000030: b346 1bbc 52ab 13bd 2d4b a33c 1d76 11bb
00000040: c20d dbbc 8846 b3bc 1323 ea3c 9db5 e33c
00000050: 547a 98bc baf0 433c 3c39 2a3c e59b cabc
00000060: 2512 8dbb e788 d7bc 3fc1 b7bc ba1c 253a
00000070: b576 e53b 5bab b3bc edaf 373c 1ff2 47bc
00000080: 9048 61bc c7a6 153c 23a8 013d fcf9 febc
00000090: 3a8f c3bc a923 bc3c 1da9 8d3c 1739 c13c
000000a0: b83f ef3c e11a b43c 29b0 0b3b d65b 8f3c
000000b0: 2462 613c 3b22 213c 6919 4b3c 0406 b3bc
000000c0: 25aa 92bc cfff 333c b3fc 52bc f27e 063d
000000d0: ffb5 0e3d c8be 9c3c 8d3c 8abc f17a 80bc
000000e0: facc fdbc 9667 453c 8406 6cbb 7d5d 403c
000000f0: 3389 11bd 4744 a8bc 5c00 1cbc eb1d b73c
00000100: 31fc 76bb f473 fa3c f8e3 d6bc 4547 cd3c
00000110: 2fc6 1fbc aa7f c83b bc89 aebc bb70 ebbc
00000120: 096a 6abc bdfb e9bc e39f 9ebc 1baa fabc
00000130: 9f15 e23b 0cf5 67bc 2885 27bc 5a28 06bd
00000140: d626 9d3c 44a3 10bd a2ab e53b 5581 0639
00000150: 6cd5 90bc a61a 8dbb 4850 cd3b 342a e93c
00000160: 7f2a f8bc 4f56 c5bc 0ad8 a5bb 688e ef3c
00000170: 21b9 d7bc 86c8 223c ac2f de3c 516e bdbc
00000180: 5d08 0ebd e89b 2bbc 54a7 23bc 3cec bebc
00000190: 9ad4 dabc 5b55 3abc e2cc d7bc 9bb6 9b3c
000001a0: 82d7 093d 8ddb 4dbc 304b bbbc 397d cb3c
000001b0: 93b1 19bc d380 29bd 1fdb 8abc cfcc 363c
000001c0: bea5 e73c 7da7 fb3c 94e8 423c c4a4 1b3d
000001d0: dd34 eabc 7c9a 12bc 0083 7bbc 78e8 eab8
000001e0: 664e ff3c 7082 83bc e712 e4bc 1a00 30bc
000001f0: 1e17 9b3c 1621 abbb 239a e23c 2a21 9f3c

weight f4 [64, 128]
0.029266378 -0.17518495 0.041847933 -0.027989076 0.10358068 0.056477875 -0.014315713 0.0038625575
-0.0028741318 0.047149606 -0.2007534 -0.012063483 0.024152763 0.14669487 -0.0034436784 0.089624815
0.0787516 0.068427235 -0.187336 -0.03500172 0.019900855 0.039183132 -0.029708728 -0.00756548
-0.010812563 -0.05817867 0.07307147 -0.039076347 -0.018496133 -0.02639862 0.072776094 0.046241023
0.1013176 -0.07892971 -0.1286673 0.02870298 -0.01861586 0.1296646 -0.24888723 0.11734164
-0.081033394 0.21439272 0.07744026 0.12932809 0.12156652 0.007156046 0.057103306 -0.1321889
-0.046927713 -0.023243167 0.046607714 0.08831411 0.08124495 -0.10376276 -0.0035192478 0.016109107
-0.1361203 -0.058369987 0.020536285 -0.025477922 0.061053257 -0.021891141 0.1039271 -0.057272214
0.057216052 -0.023783782 0.16521657 0.06926821 0.09356334 0.036513973 0.021877097 0.109820575
0.058267314 -0.0390631 0.15456173 0.09644696 -0.0815154 0.060866088 -0.018584345 -0.08403653
-0.08775166 0.059859257 0.04670196 0.08861579 0.050075796 -0.048132192 0.033729997 0.019381357
0.15829551 -0.048526444 0.01864493 0.07728387 0.018202553 -0.063980445 0.10272275 -0.082259566
-0.2227632 -0.08536513 -0.04563913 -0.053720497 0.05059122 -0.038054775 -0.11596902 -0.018002944
-0.17878635 0.019701395 -0.041411657 -0.06528613 0.12479381 0.098907344 -0.06908555 -0.16789971
0.13290292 -0.10225932 -0.09371301 0.060759228 0.08320992 -0.016557524 -0.06541449 0.023402655
-0.046677362 -0.09233769 0.039894834 -0.06654762 0.16639781 -0.024846006 -0.06836958 0.013230398
-0.07070631 -0.071779504 -0.0064849467 -0.07998983 0.03165659 -0.034803707 -0.017390888 0.048935823
0.055357005 0.053192258 -0.03458853 -0.008099101 -0.029283004 -0.026340414 -0.0046746894 0.009159168
-0.068885945 -0.044053666 -0.002190114 -0.050333526 0.06108906 -0.019011656 -0.07946654 -0.068850614
0.05770297 -0.001125371 -0.019610016 -0.0036193281 -0.08967586 -0.08500488 -0.061209098 -0.059927758
0.0009112899 -0.08600057 -0.009737297 -0.07353643 0.053576663 -0.0005189246 0.08403974 0.024330048
0.058729265 -0.016923489 -0.059446406 -0.07089574 -0.028659731 -0.052751504 -0.083191775 -0.06805568
0.08527658 0.04227597 -0.028899958 0.024763593 0.024888147 0.05867847 0.0027146642 -0.033716615
0.021467922 -0.05778687 0.015508784 0.046921723 0.057091504 -0.05234917 0.06314189 -0.07258608
-0.08502929 -0.08891913 -0.0039403248 0.011772126 0.030365953 0.048617862 -0.0853511 -0.029300397
-0.04562524 -0.06223945 0.075510226 0.05905105 -0.012504013 -0.023195965 -0.050086565 0.014077439
-0.05895008 -0.0736049 -0.02649769 -0.03413613 0.08593359 -0.06857429 -0.066122875 -0.028572256
0.06803926 -0.037503965 -0.032419093 0.061923113 0.055321142 -0.05917626 0.028180744 -0.009398172
-0.07584341 -0.0065140617 -0.021088785 0.06816847 0.027641114 -0.06751037 0.03216401 -0.025420912
-0.057126075 -0.0023728453 0.06724837 -0.06164078 -0.028820507 -0.004341099 -0.06453153 0.076081425
-0.0018921135 0.03493717 0.07289977 0.033769596 0.06368663 -0.027900392 0.059785083 0.032754883
-0.051781364 0.029968867 0.037404183 -0.057753414 0.031112086 0.023246983 0.068840444 -0.04376089
00000000: 0bc0 ef3c af63 33be bd68 2b3d 5949 e5bc
00000010: 1c22 d43d 5855 673d 748c 6abc f622 7d3b
00000020: ee5b 3cbb f21f 413d 4d92 4dbe eaa5 45bc
00000030: 04dc c53c 2e37 163e 56af 61bb 378d b73d
00000040: 8548 a13d 9423 8c3d 02d5 3fbe f75d 0fbd
00000050: 1e07 a33c 7e7e 203d b85f f3bc d9e7 f7bb
00000060: 2d27 31bc c24c 6ebd 7fa6 953d 850e 20bd
00000070: 3485 97bc eb41 d8bc a20b 953d 3a67 3d3d
00000080: 9a7f cf3d e6a5 a1bd 5cc1 03be 8322 eb3c
00000090: 4a80 98bc ccc6 043e 4bdc 7ebe d050 f03d
000000a0: d6f4 a5bd c489 5b3e 0099 9e3d 956e 043e
000000b0: def7 f83d 447d ea3b 28e5 693d 875c 07be
000000c0: 4637 40bd 7468 bebc bbe7 3e3d 07de b43d
000000d0: c163 a63d 9281 d4bd 2ea3 66bb 3ff7 833c
000000e0: 1f63 0bbe 5e15 6fbd b63b a83c 13b7 d0bc
000000f0: fb12 7a3d 0d55 b3bc bbd7 d43d 4596 6abd
00000100: 615b 6a3d 35d6 c2bc 882e 293e 7edc 8d3d
00000110: 239e bf3d ad8f 153d 9937 b33c 9ce9 e03d
00000120: b5a9 6e3d a100 20bd 6e45 1e3e fc85 c53d
00000130: 8cf1 a6bd b84e 793d 323e 98bc 581b acbd
00000140: 24b7 b3bd fb2e 753d 8e4a 3f3d 327c b53d
00000150: 471c 4d3d 4326 45bd 7728 0a3d a7c5 9e3c
00000160: 3818 223e aac3 46bd 41bd 983c 0147 9e3d
00000170: 851d 953c 2e08 83bd 4e60 d23d b477 a8bd
00000180: 091c 64be ead3 aebd 19f0 3abd 060a 5cbd
00000190: bd38 4f3d 53df 1bbd 2a81 edbd e97a 93bc
000001a0: c513 37be d264 a13c 459f 29bd bcb4 85bd
000001b0: e693 ff3d ef8f ca3d ba7c 8dbd e7ed 2bbe
000001c0: b417 083e 566d d1bd 9bec bfbd abde 783d
000001d0: f669 aa3d a5a3 87bc 08f8 85bd edb6 bf3c
000001e0: c330 3fbd 8b1b bdbd c468 233d 1e4a 88bd
000001f0: 3064 2a3e da89 cbbc 5a05 8cbd 50c4 583c
00000200: 78ce 90bd 2201 93bd ad7f d4bb b5d1 a3bd
00000210: 57aa 013d 558e 0ebd 5677 8ebc ee70 483d
00000220: 07be 623d 20e0 593d b4ac 0dbd 17b2 04bc
00000230: e9e2 efbc dac7 d7bc 232e 99bb 5610 163c
00000240: 1314 8dbd 9e71 34bd 0488 0fbb 872a 4ebd
00000250: 8638 7a3d 55be 9bbc 5abf a2bd 8d01 8dbd
00000260: f359 6c3d 2f81 93ba 2fa5 a0bc 4032 6dbb
00000270: faa7 b7bd 0a17 aebd 64b6 7abd cf76 75bd
00000280: a1e3 6e3a 1121 b0bd 2f89 1fbc 459a 96bd
00000290: 3473 5b3d 7108 08ba 071d ac3d cf4f c73c
000002a0: 198e 703d 21a3 8abc 137e 73bd c931 91bd
000002b0: d0c7 eabc f611 58bd 7360 aabd c760 8bbd
000002c0: 7da5 ae3d 9129 2d3d 9bbf ecbc 05dd ca3c
000002d0: 3ae2 cb3c d658 703d 82e8 313b 6f1a 0abd
000002e0: 7fdd af3c edb1 6cbd 8e18 7e3c fe30 403d
000002f0: c8d8 693d 156c 56bd 8950 813d 03a8 94bd
00000300: d623 aebd 3c1b b6bd d71d 81bb e0df 403c
00000310: 05c2 f83c 8623 473d 8fcc aebd 6307 f0bc
00000320: 88e1 3abd cbee 7ebd 1ba5 9a3d 84df 713d
00000330: a2dd 4cbc 7705 bebc 9227 4dbd 0fa5 663c
00000340: a475 71bd 2abe 96bd af11 d9bc 54d2 0bbd
00000350: f3fd af3d ad70 8cbd 6e6b 87bd 5d10 eabc
00000360: 2b58 8b3d c29d 19bd e2c9 04bd 17a3 7d3d
00000370: 6c98 623d ce62 72bd 4edb e63c cafa 19bc
00000380: ca53 9bbd e973 d5bb 63c2 acbc e99b 8b3d
00000390: 9e6f e23c e042 8abd 69be 033d 843f d0bc
000003a0: 08fd 69bd bd81 1bbb 83b9 893d 0b7b 7cbd
000003b0: fc18 ecbc c73f 8ebb 1b29 84bd 94d0 9b3d
000003c0: cb00 f8ba 471a 0f3d 7a4c 953d fd51 0a3d
000003d0: 236e 823d 5d8f e4bc 34e1 743d fc29 063d
000003e0: b218 54bd 4581 f53c 2135 193d d88e 6cbd
000003f0: c6de fe3c 7570 be3c 38fc 8c3d 9e3e 33bd

bias f4 [64]
0.09609547 0.010045274 -0.018100495 0.037097238 0.05982806 0.017656203 0.014999478 -0.07110511
-0.04500449 0.027476152 -0.073694006 -0.04860849 -0.00728394 0.08664226 -0.010859086 0.033533283
-0.054725353 0.02925613 0.013567488 -0.056014325 0.078843854 0.03476399 0.10396657 -0.026308348
-0.014224087 0.08534355 0.068308905 -0.01048981 0.077554815 0.07630205 -0.06113043 -0.049491864
0.000524694 -0.048826013 0.047985483 -0.08903604 -0.052987006 0.088073924 0.0033171393 0.017838486
0.06493274 -0.043474376 0.076867074 -0.08363742 0.025743663 0.0087560285 0.03375225 -0.019584531
0.014342664 -0.029499438 0.07464667 0.040279463 0.01610925 -0.06951313 -0.021808894 0.07277624
0.01671393 -0.021746607 -0.0060058916 0.032912485 0.0120417485 0.01287792 -0.08356848 -0.08443654
00000000: b4cd c43d ef94 243c 7d47 94bc 46f3 173d
00000010: 450e 753d bea3 903c 5fc0 753c 8e9f 91bd
00000020: a156 38bd ab15 e13c e2ec 96bd b219 47bd
00000030: 1eae eebb 7f71 b13d 4fea 31bc 325a 093d
00000040: b127 60bd 8daa ef3c 2b4a 5e3c 476f 65bd
00000050: e378 a13d b064 0e3d 6dec d43d 9b84 d7bc
00000060: 250c 69bc 99c8 ae3d 8ae5 8b3d 74dd 2bbc
00000070: 0fd5 9e3d 4044 9c3d e763 7abd fbb7 4abd
00000080: 9e8b 093a c9fd 47bd 6d8c 443d 8758 b6bd
00000090: e708 59bd 1a60 b43d 5d64 593b 0422 923c
000000a0: 75fb 843d 3012 32bd 7c6c 9d3d 184a abbd
000000b0: 60e4 d23c 7275 0f3c cd3f 0a3d bd6f a0bc
000000c0: 7efd 6a3c cea8 f1bc 5ae0 983d 14fc 243d
000000d0: 8cf7 833c e65c 8ebd 91a8 b2bc b60b 953d
000000e0: a7eb 883c f125 b2bc 12cd c4bb 3ecf 063d
000000f0: c14a 453c e9fd 523c f425 abbd 11ed acbd

weight f4 [10, 64]
0.0030242638 0.010902338 -0.33451876 -0.18463291 -0.03641827 0.35620287 0.260467 0.0040898873
-0.05196977 -0.0933119 -0.1872435 -0.040879548 -0.12850739 0.16696008 0.03121257 0.11558448
0.078729965 0.18571155 -0.31364852 0.079761595 -0.17553216 -0.20939213 -0.29210404 0.07950621
0.3740386 -0.2306777 -0.14965244 0.2611103 0.030692494 -0.0032378961 0.18028066 0.1699287
0.4125868 -0.047985014 0.055865433 -0.18042111 -0.27552456 0.37207073 0.1439327 -0.29424995
-0.4136486 -0.2201199 -0.4912631 -0.041263025 0.06856548 -0.22591412 0.36398372 -0.024733242
0.14457875 -0.023082988 0.48435113 -0.074828744 -0.18359728 0.12308734 -0.15141574 0.071353815
-0.17216039 -0.27756637 -0.04252064 0.21713969 -0.15540157 -0.18687376 -0.000117794385 -0.041967757
-0.08612505 0.04119171 0.12088812 -0.42277962 -0.20547539 -0.32488537 -0.4050433 -0.043423865
-0.01252094 0.18298808 -0.16931786 -0.17626181 0.32598105 0.2542776 -0.06178402 0.012464214
-0.05956154 0.19866437 -0.029351525 0.2473015 0.11511313 -0.1478756 0.05795248 -0.05099036
-0.34458017 0.090305984 0.2709327 0.14354044 0.026519641 -0.09648947 0.06309476 -0.40046707
-0.3885814 -0.062646575 0.27638072 -0.032833412 0.03762044 -0.16309525 -0.0053971945 0.43856195
0.14942835 0.07695368 0.107979275 0.14011908 0.26825923 -0.48364365 -0.1341662 0.000753542
0.19693534 0.14888254 0.35807255 0.21637717 -0.20744321 -0.123093784 0.07857674 -0.41100642
0.29979149 -0.080082186 0.39266965 -0.29179204 -0.25625092 0.3005598 0.109306976 0.31630293
-0.50668657 0.11129332 -0.29541928 -0.1887859 -0.18303873 0.054800566 -0.4323614 0.036757346
-0.035620715 0.18210416 -0.11676432 0.029389465 0.07066269 -0.0040387525 0.00083705387 0.016909698
-0.14007245 -0.45319515 -0.44013935 0.21683946 0.19848342 0.23324819 0.09143722 0.11593989
0.36535576 0.12431258 0.13891262 -0.17097388 0.2769932 0.082030416 0.106766894 0.19443099
-0.112800226 0.0024005624 0.061578337 0.1774758 -0.42994183 -0.0085048 0.061286166 0.31041914
-0.10936898 -0.2533667 0.11422887 -0.28297004 -0.33518487 0.046952643 0.43201184 -0.06375825
0.3547604 0.012413152 -0.12108007 -0.39762262 0.24044032 0.05473431 0.17113975 0.23390791
0.4249674 -0.45516455 0.38473672 0.3107558 0.5560613 0.019045442 -0.03217551 -0.21489994
-0.25162292 0.104132585 -0.23713039 0.17776169 0.09049925 0.15628749 0.25063446 0.012407576
-0.070069894 -0.17350383 0.4636026 -0.1446481 -0.2958279 -0.12380775 -0.13981076 -0.2374395
0.119776666 -0.05650994 0.15350908 -0.039008882 -0.17998849 -0.39949632 -0.24959603 -0.04556776
0.06882717 -0.12159551 -0.23804669 -0.26548234 0.30287522 -0.12521219 -0.2953048 -0.1204207
-0.07442378 -0.053652983 0.04903139 0.0068469117 -0.37522784 -0.2236791 -0.09002007 0.5195616
0.10996618 0.59340423 0.44221622 0.48248354 0.004580124 0.27169496 0.27817395 0.23303488
-0.016352756 0.14291 -0.11279056 0.36282343 0.28324893 0.1458359 -0.11136956 -0.51361156
0.17289422 0.075581975 -0.39376995 -0.14722733 -0.01617365 -0.15197489 0.029400077 -0.19032253
00000000: ba32 463b b89f 323c 0b46 abbe 6910 3dbe
00000010: 532b 15bd 3960 b63e ee5b 853e 7604 863b
00000020: 41de 54bd 4f1a bfbd c3bc 3fbe 5071 27bd
00000030: 7197 03be 95f7 2a3e 81b1 ff3c 8eb7 ec3d
00000040: 2d3d a13d 2b2b 3e3e 8a96 a0be 0c5a a33d
00000050: b4be 33be e46a 56be a98e 95be 27d4 a23d
00000060: fd81 bf3e c636 6cbe 7d3e 19be 40b0 853e
00000070: d36e fb3c e232 54bb 7e9b 383e ca01 2e3e
00000080: 943e d33e ef8b 44bd 27d3 643d 50c0 38be
00000090: 8e11 8dbe 0e80 be3e 1863 133e eea7 96be
000000a0: c0c9 d3be 1c67 61be d686 fbbe 6b03 29bd
000000b0: 0f6c 8c3d 0856 67be 135c ba3e 5e9d cabc
000000c0: 740c 143e 8918 bdbc dffc f73e d03f 99bd
000000d0: ed00 3cbe 3715 fc3d ba0c 1bbe f321 923d
000000e0: d04a 30be 2e1d 8ebe 1f2a 2ebd de59 5e3e
000000f0: 9721 1fbe d65b 3fbe 6108 f7b8 62e6 2bbd
00000100: 5562 b0bd a3b8 283d 3194 f73d 9276 d8be
00000110: 2468 52be 6057 a6be d661 cfbe 39dd 31bd
00000120: a124 4dbc 3a61 3b3e a961 2dbe fa7d 34be
00000130: fde6 a63e ac30 823e 3e11 7dbd b436 4c3c
00000140: cdf6 73bd ac6e 4b3e 9c72 f0bc 9b3c 7d3e
00000150: 6fc0 eb3d b46c 17be 945f 6d3d 45db 50bd
00000160: d06c b0be 58f2 b83d b1b7 8a3e 44fc 123e
00000170: b83f d93c 459c c5bd d337 813d 050a cdbe
00000180: 24f4 c6be d94c 80bd c681 8d3e 547c 06bd
00000190: e417 1a3d 7102 27be f3da b0bb 318b e03e
000001a0: bf03 193e e499 9d3d 3d24 dd3d 607b 0f3e
000001b0: 4659 893e 24a0 f7be dd62 09be 5989 453a
000001c0: 6ba9 493e aa74 183e 4955 b73e fa91 5d3e
000001d0: fe6b 54be 9818 fcbd d8ec a03d 6f6f d2be
000001e0: 457e 993e 2102 a4bd ff0b c93e c465 95be
000001f0: 5233 83be f9e2 993e 56dc df3d 75f2 a13e
00000200: 36b6 01bf c1ed e33d 3241 97be 1751 41be
00000210: 816e 3bbe 8f76 603d 795e ddbe df8e 163d
00000220: 07e7 11bd 8379 3a3e 2222 efbd 2dc2 f03c
00000230: 9ab7 903d 8357 84bb bc6d 5b3a 3586 8a3c
00000240: 276f 0fbe 3209 e8be f259 e1be 2a0b 5e3e
00000250: 3d3f 4b3e 9dd8 6e3e 7043 bb3d e571 ed3d
00000260: e90f bb3e 9897 fe3d 1c3f 0e3e c713 2fbe
00000270: 0dd2 8d3e 90ff a73d 9aa8 da3d eb18 473e
00000280: ce03 e7bd c152 1d3b 9139 7c3d 37bc 353e
00000290: 5621 dcbe b757 0bbc 3407 7b3d 42ef 9e3e
000002a0: d8fc dfbd 48b9 81be d3f0 e93d 73e1 90be
000002b0: 5a9d abbe 6a51 403d a830 dd3e af93 82bd
000002c0: 28a3 b53e 8860 4b3c d4f8 f7bd 3195 cbbe
000002d0: fd35 763e 1531 603d 423f 2f3e 8e85 6f3e
000002e0: 5495 d93e 540b e9be 36fc c43e 621b 9f3e
000002f0: 095a 0e3f 3005 9c3c 78ca 03bd bb0e 5cbe
00000300: b8d4 80be 7743 d53d 4fd2 72be 2907 363e
00000310: ac57 b93d d409 203e 2953 803e 2549 4b3c
00000320: ce80 8fbd fdaa 31be 525d ed3e a21e 14be
00000330: c176 97be eb8e fdbd 8d2a 0fbe 5723 73be
00000340: 784d f53d f876 67bd 7c31 1d3e c7c7 1fbd
00000350: e74e 38be c88a ccbe 1a96 7fbe 42a5 3abd
00000360: 42f5 8c3d 1107 f9bd 83c2 73be 4ded 87be
00000370: 7612 9b3e a037 00be 3132 97be 219f f6bd
00000380: 7f6b 98bd 3bc3 5bbd 24d5 483d 0f5c e03b
00000390: dd1d c0be 220c 65be 715c b8bd fd01 053f
000003a0: f335 e13d 57e9 173f 2a6a e23e 1508 f73e
000003b0: dd14 963b 9a1b 8b3e d16c 8e3e b2a0 6e3e
000003c0: 37f6 85bc 0057 123e bdfe e6bd fec3 b93e
000003d0: 0106 913e 0256 153e b915 e4bd 0c7c 03bf
000003e0: 2f0b 313e b9ca 9a3d 379c c9be c3c2 16be
000003f0: 9a7e 84bc 4e9f 1bbe 6ed8 f03c e9e3 42be

bias f4 [10]
0.014775663 -0.072112404 0.09568986 -0.08754852 0.1608917 -0.1255266 0.122845046 0.039723795
-0.018704245 -0.06564581
00000000: 9f15 723c abaf 93bd 0cf9 c33d a34c b3bd
00000010: cbc0 243e 0c8a 00be 2f96 fb3d 6bb5 223d
00000020: a539 99bc 4f71 86bd
